hw4/AI_HW4_updated/Tables/DQN.pt (torch, 9527 bytes, 6 tensors)

fc1.weight f4 [32, 4]
000000 ba 8a 85 3e 75 ee a9 3e bf 1b ad 3e 7f 44 80 3e
       0.26082402 0.3318974 0.3381023 0.25052258
000010 71 79 9f bf 57 49 81 3d 7b ac ff 3d 06 1c 08 3e
       -1.2458936 0.063128166 0.1248407 0.1329194
000020 b2 20 88 be 32 d7 84 3e 9a 40 82 3e 5f c0 27 3f
       -0.26587445 0.2594543 0.25439912 0.6552791
000030 5c aa b9 3b 6b a5 91 3e 26 b0 23 3e d2 bd d5 3e
       0.0056660604 0.28446516 0.15985164 0.41746384
000040 7b 26 bb 3d ea 64 b3 3e 66 0c 14 3f e8 9d a9 3d
       0.09138199 0.3503793 0.5783142 0.08282071
000050 a4 b0 11 3f b0 9d a4 3d 17 1b 82 3f ae aa 25 bc
       0.5691016 0.08037889 1.0164517 -0.010111494
000060 54 ed e3 be 37 1e 68 3d 74 f4 78 3f 43 2d 9b be
       -0.44517004 0.05666944 0.97248006 -0.3030797
000070 29 f4 a7 3c 47 42 9f bc 4f dc c8 3e b6 3f 88 bd
       0.020502167 -0.019440783 0.39230582 -0.06652777
000080 b4 87 7a 3e 49 cc 6a 3d d5 cc d1 3f 65 91 10 3f
       0.24465829 0.057323728 1.6390635 0.56471854
000090 63 01 e1 be d9 d0 4a be 2a ff 06 bf e0 a5 24 3e
       -0.4394637 -0.19806232 -0.527331 0.16078901
0000a0 5a 05 09 3f 16 2e 35 be ba 93 7a 3f 89 9a bb 3d
       0.5352379 -0.17693362 0.9788166 0.091603346
0000b0 65 c5 25 bd 73 eb 1c be 47 5c d2 bf 2b c0 f0 be
       -0.040471453 -0.15324192 -1.6434411 -0.47021613
0000c0 2a e2 ac 3d a8 ee d6 be 7e 89 b3 3d 33 6a 98 be
       0.08441575 -0.41978955 0.08766459 -0.29768524
0000d0 c3 cf 32 3f 82 e6 34 3f 76 97 3b 3f aa 54 06 3f
       0.6984827 0.70664227 0.73277986 0.5247294
0000e0 83 16 2f 3f b2 f9 18 3b 0e 64 45 3e b7 42 32 3e
       0.68393725 0.002334219 0.19276449 0.17408262
0000f0 c0 a2 d9 be 5d 55 d1 be 54 b8 42 3f 93 31 c6 3e
       -0.4250698 -0.4088544 0.7606251 0.38709697
000100 14 8e 00 be c0 c7 f3 3d 16 36 a9 be 80 cd 62 3d
       -0.12554199 0.11903334 -0.33049077 0.05537176
000110 c6 9c a8 3e 63 a7 a3 3e af 5d d5 3f 43 45 f3 3e
       0.3293211 0.31963643 1.6669215 0.4751378
000120 e1 02 2b 3e d7 eb aa 3e 41 42 64 3f 0c 09 ea 3e
       0.16700317 0.33383057 0.89163595 0.45710027
000130 5c 46 11 be 1f 7f fe 3e ef db b4 3f d6 f0 d4 3e
       -0.14186996 0.4970636 1.4129618 0.41589993
000140 07 be 17 bf 2b 3c 39 bf 29 30 cc 3e e5 e5 5e be
       -0.59274334 -0.72357434 0.39880493 -0.21767385
000150 01 46 ec 3e 28 d9 0f 3e f9 d5 ac 3e 84 31 ca 3b
       0.4614716 0.14047682 0.33756998 0.0061704535
000160 dd 71 f3 3e 0d 3e a4 3c 8d 9c 43 3f 54 e1 5a 3e
       0.47547808 0.02004912 0.7641075 0.21375018
000170 53 91 2d 3e ce 90 10 3f ff cc 11 3e ec 37 f1 bc
       0.16949968 0.56470954 0.14238356 -0.029445611
000180 0b 10 81 3f bb 7e 04 3f 6e dc 47 be 5f bd 5e 3d
       1.0083021 0.51755875 -0.19517681 0.054379817
000190 39 19 c3 3e b8 9e 04 3e 93 ce 8a bf 9a e2 6b bf
       0.3810518 0.12951171 -1.0844291 -0.9214264
0001a0 07 ff ed bd 21 e6 22 3c e7 be 23 3f 4d 4d 79 3d
       -0.11620908 0.009942562 0.6396317 0.060864735
0001b0 6c fa d9 3e 40 e5 c9 3c 9c b0 cf 3e ac 12 b6 3d
       0.4257387 0.024645448 0.4056443 0.0889028
0001c0 68 93 67 3f cc ce b3 3e e9 21 9e bd 0a 0a 73 bd
       0.904593 0.3511871 -0.077213116 -0.059335746
0001d0 57 7c 34 3e e2 94 8a be 94 9f 3c 3f 7a 06 b3 3e
       0.17625557 -0.27066714 0.73680997 0.3496588
0001e0 23 36 67 3e c7 5f a5 be 2e 2e ac 3e 4e dd 96 3d
       0.22579245 -0.32299635 0.33628982 0.07366429
0001f0 b0 b1 c5 3e 03 56 c9 be ea 61 97 bd 17 e9 11 be
       0.38612127 -0.39323434 -0.073917225 -0.14249073

fc1.bias f4 [32]
000000 2e ae f7 3e 4d 4e 3d bc 47 4f 72 bc 7c 91 4e 3f
       0.48375076 -0.011554313 -0.014789409 0.8069074
000010 6b c9 3c 3f 84 9d 7b 3e 6c e7 ee 3e 6f bb 70 3f
       0.7374484 0.24571806 0.46660936 0.94036
000020 21 7d ce be 82 43 f9 be 1d 2a 50 3f 2f a8 73 be
       -0.4032984 -0.48684317 0.8131426 -0.23794626
000030 48 0d 43 3f 2b 72 72 bd a8 f8 17 3f cb 66 a7 3e
       0.7619214 -0.05919091 0.59363794 0.32695612
000040 f4 3b f2 be b2 e5 fe 3d f6 e5 b8 3e f3 35 b9 be
       -0.47311366 0.12446155 0.36112946 -0.36173972
000050 f7 ed 16 be 18 7d 44 3f 90 53 f9 3e d4 6e 22 3d
       -0.14739214 0.7675338 0.48696566 0.039656475
000060 bb 89 60 be 99 cf 83 bd 82 f4 da 3e fe 43 05 3f
       -0.2192754 -0.064360805 0.4276467 0.5205687
000070 ae 4b c0 be 2a 45 f3 be 00 e1 e0 3e 69 68 95 3e
       -0.3755774 -0.47513705 0.4392166 0.2918122

fc2.weight f4 [50, 32]
000000 b7 5a a1 3e b1 9f e2 be 8e bc c2 be 78 99 f1 3e
       0.31514522 -0.4426246 -0.3803448 0.471874
000010 03 6a 2c 3f 55 3a 66 bf e4 87 cb 3e 04 1a d5 3e
       0.6734926 -0.8993276 0.39752114 0.4162141
000020 89 41 3a be 5e 0b 01 3f 77 3d 3c 3e bf b0 d4 be
       -0.18189062 0.5040797 0.18382822 -0.41541097
000030 5d 49 b1 3e 4d b6 1c bf 57 c4 4e 3e 50 e5 18 3e
       0.34626284 -0.6121567 0.20192085 0.14931226
000040 a7 9a 1c 3e a6 8c f6 be eb bd a5 bb 1d 4f 23 bf
       0.1529337 -0.4815418 -0.0050580404 -0.6379259
000050 3e 7c 62 bd 6b 12 f2 3e a5 a2 14 3d 5e e4 35 bc
       -0.055294268 0.47279677 0.036287922 -0.01110181
000060 d0 7d 98 be 58 8f 94 be 36 fd 8e 3e d4 f0 86 3e
       -0.29783487 -0.29015613 0.2792756 0.26355612
000070 a5 99 0d bf 43 4b 0e be 3b 20 db 3d 57 f1 94 3e
       -0.5531257 -0.13895898 0.10699507 0.29090378
000080 91 ec 9d 3e 1a 86 12 bf c3 0b 4a be 68 5a df 3e
       0.30844548 -0.5723587 -0.19731049 0.43623662
000090 d5 c6 25 3f 6c 23 4f bf 31 e1 0d 3f 47 ee e4 3e
       0.6475652 -0.80913424 0.5542174 0.4471304
0000a0 19 13 ac be ca 81 d2 3e 3c be 06 3f 6d b9 2a be
       -0.3360832 0.41114646 0.52634025 -0.16672297
0000b0 e5 28 13 3e cd c0 c3 be af 2a 56 3e 62 d0 ae bb
       0.14371069 -0.38233033 0.2091472 -0.0053348998
0000c0 00 04 d3 3a 4d 8f e2 bd 43 2d 6e bc e4 ea 16 bf
       0.0016099215 -0.11062489 -0.014537158 -0.58952165
0000d0 83 35 7b 3e d6 20 fe 3e 28 62 93 3e 50 39 ec bd
       0.24532132 0.49634427 0.28785825 -0.11534369
0000e0 ea b3 97 be 8d 3a 9d be 19 a1 0f 3e 4b 25 09 3f
       -0.2962945 -0.30708733 0.14026298 0.5357253
0000f0 49 04 e5 be 85 62 ff be 70 3a 47 3e 61 1e 2e 3d
       -0.44729832 -0.49879852 0.19455886 0.04250944
000100 0a 59 2c 3e d2 bf fb bd 9b e2 68 bd 28 21 a9 bd
       0.1683084 -0.12292446 -0.056856733 -0.08258277
000110 44 80 2a be 2c 8a 06 bd 23 04 09 be 3a e0 5d bd
       -0.16650492 -0.032846615 -0.13380484 -0.054168917
000120 af 69 f4 bd 08 7f 03 be 39 5b a9 3d b0 2c 0d 3d
       -0.1193422 -0.12841427 0.082693525 0.034466445
000130 cc 13 9c bc 98 04 3d 3d e2 50 22 bd 52 b9 5b bc
       -0.019052409 0.04614696 -0.039627917 -0.013410883
000140 c8 d7 fd 3c 7a c7 79 3d 86 25 35 be 01 6c fc 3d
       0.030986682 0.06098125 -0.17690095 0.123252876
000150 11 3b e9 3d 21 eb d0 bb 14 75 f1 bd 9c 57 64 3d
       0.11388219 -0.006375686 -0.11789909 0.055747613
000160 ac bd 95 bd 55 e6 c5 bd 45 5b 5f bb 51 eb 9b bd
       -0.07311568 -0.09663073 -0.00340815 -0.076132424
000170 a0 17 8c 3c 06 c6 5b 3d 90 6b 0f 3e 19 2d e6 3d
       0.017101109 0.053655647 0.14005876 0.112390704
000180 f5 9c 1c 3c 60 af d2 bd 50 cc bf bc a4 e5 89 3d
       0.009558906 -0.102873564 -0.023412853 0.067332536
000190 d1 e0 9e 3d 50 c5 b5 bc c7 ff 0f be 91 d2 df bc
       0.07757724 -0.022188812 -0.14062415 -0.027322086
0001a0 46 53 9c 3d 72 c9 2f be 87 f8 d9 bd f2 ce 22 be
       0.07633071 -0.17166689 -0.10643106 -0.15899256
0001b0 af ba 35 be cb b9 0a 3e f8 5b ee 3c 2c 92 39 bd
       -0.17746995 0.13547437 0.029096588 -0.045305416
0001c0 2f c3 b7 bd d6 9e 24 be e1 c5 1b 3e eb 8a f3 bd
       -0.08972775 -0.16076216 0.15212204 -0.11891731
0001d0 fe 95 ad bd e6 5c 2f 3d de da 25 be 7d be 34 be
       -0.08475874 0.042813204 -0.16196772 -0.1765079
0001e0 f8 bd 28 bd 10 b3 92 3c b5 29 ca bd 49 78 2a be
       -0.041196793 0.01790765 -0.09871236 -0.16647448
0001f0 5b ab 16 be 10 7d 21 be 7f 31 2d be 60 63 2d bd
       -0.14713804 -0.15770364 -0.16913413 -0.0423311
000200 13 69 30 3e 80 5b 13 be 85 61 e6 3d 5b b4 b8 bc
       0.17227583 -0.14390373 0.11249069 -0.022546938
000210 61 12 b7 bd bd 6e f4 be 97 c3 a1 3d 3c 84 29 3d
       -0.089390524 -0.47740737 0.07898634 0.041385874
000220 a9 21 5e be 79 04 80 3e f0 f8 2d bd f9 7d 10 3e
       -0.21692528 0.25003412 -0.042473733 0.14110555
000230 80 5f 62 3e d0 5d 8a be e4 34 59 3e a5 45 8b 3e
       0.22106743 -0.27024698 0.21211582 0.27201572
000240 a6 9a 08 be ef 77 d0 bd f5 0d 26 bd 86 60 24 bf
       -0.13340244 -0.101791255 -0.040540654 -0.64209783
000250 45 10 fc 3e 20 95 bf bd 84 8e 2f 3e 9d b1 49 be
       0.49231163 -0.09354615 0.17144209 -0.1969666
000260 95 a3 8b be 37 9d 7b bd 83 bf 2e bc 92 df 37 bd
       -0.2727324 -0.06142923 -0.010665777 -0.044890948
000270 53 ec c0 be a8 7b 9c 3d 9d 62 46 3e d1 d2 4a 3e
       -0.376803 0.07640773 0.19373555 0.19806983
000280 fd 93 60 3e b0 94 bb be ec 19 20 bf 33 af 82 3e
       0.21931453 -0.36636877 -0.62539554 0.2552429
000290 59 5d f8 3e bb aa fe 3e 5c e5 4d 3e 52 e8 81 3e
       0.4850872 0.49739632 0.20107025 0.2537256
0002a0 48 42 c3 be d6 bb c9 3e 9a 19 df 3e 54 56 64 3e
       -0.38136506 0.3940112 0.4357422 0.22298557
0002b0 62 39 69 3e e9 d3 b3 3e f2 da bf 3d e2 98 35 bf
       0.22775796 0.35122612 0.093679324 -0.70936406
0002c0 5e ef b6 3d bc 1d 09 bf 02 97 35 bf 38 d5 12 bf
       0.089323744 -0.53560996 -0.70933545 -0.57356596
0002d0 d0 21 ac 3e 84 d1 0c 3e 70 96 20 3d a1 34 e4 3c
       0.33619547 0.13751799 0.03920597 0.027857127
0002e0 23 53 64 3e de 3d 0c bf f3 f6 79 3e 01 36 68 3e
       0.22297339 -0.547819 0.2441061 0.22676851
0002f0 13 69 8f be 5c 38 65 bf e0 6e b1 3e a6 19 c6 bc
       -0.28009853 -0.8953912 0.34654903 -0.024182152
000300 7f 2b c2 bc 9a 2f 81 be e3 c8 4d bf b1 4d e6 3c
       -0.023702381 -0.2523163 -0.80384654 0.028113218
000310 16 fd cf bd 7f ba 0d 3f be 8f c9 3d 06 59 85 bd
       -0.10155694 0.55362695 0.0984187 -0.065111205
000320 26 a5 e7 bc 8c dd 6b bf 7b d6 3d 3d e4 ef 9e bf
       -0.028276991 -0.9213493 0.046347123 -1.2416959
000330 a5 e4 13 3b 96 3b 78 3e 56 ea 2c 3e 85 bf dc bd
       0.0022566703 0.2424148 0.16886267 -0.10778717
000340 eb 59 30 be 0c f4 cd be 33 c1 bb 3e 87 b3 aa 3e
       -0.17221801 -0.40225255 0.36670837 0.33340093
000350 e6 eb ac bf 17 8a 4d 3c 21 a1 d3 3d 16 38 1c 3c
       -1.350949 0.01254513 0.10333467 0.009534856
000360 42 f9 07 3e 77 74 34 bf d3 19 36 3e 1f b9 a6 bc
       0.13278678 -0.7049021 0.17783289 -0.020351944
000370 ea 9d 53 3e a4 15 9f 3e 4c 06 b3 bc e0 b7 a2 be
       0.20665708 0.31071198 -0.021853589 -0.3178091
000380 f8 50 33 3d aa 57 97 3d c0 98 71 bd b0 39 2c be
       0.04377839 0.073897675 -0.058983564 -0.16818881
000390 74 74 05 bd ea a2 15 be c1 ec 33 be 20 32 a4 bb
       -0.03258176 -0.14612928 -0.17570783 -0.005010858
0003a0 c1 63 ab bd 02 61 03 be e0 9c 8b bc 8f 00 35 3e
       -0.08368636 -0.12829974 -0.017042577 0.17675994
0003b0 c7 03 06 be c5 1c 9c bd 49 35 03 3e 62 55 1d be
       -0.13087378 -0.07622675 0.12813295 -0.15364602
0003c0 36 6e e8 3d bb ff cc bd 20 c9 19 bc 10 0b f4 bd
       0.11349146 -0.10009714 -0.009386331 -0.119161725
0003d0 ad 1c 99 bd 7b 55 13 3e 7c e1 ff bd 00 30 a4 ba
       -0.074761726 0.14388077 -0.124941796 -0.0012526512
0003e0 76 79 21 be 40 ff 68 bb 69 7d 22 be b2 8a f8 3d
       -0.1576899 -0.0035552531 -0.15868153 0.12135829
0003f0 c8 ac 84 3d 40 84 04 bb dd 62 20 3e 28 40 d4 bc
       0.06478268 -0.0020220429 0.15662713 -0.025909498

fc2.bias f4 [50]
000000 74 6b f7 3e 78 58 70 3e 18 09 95 bd 43 da 97 3d
       0.48324168 0.23471248 -0.07277125 0.07414677
000010 2b 9f e8 3d e7 6f 51 3e 12 a2 55 3c 86 9f c9 bd
       0.11358484 0.20452844 0.013039129 -0.0984488
000020 df 97 00 3f 97 10 64 3e af d6 ee bd 2e e2 b9 3e
       0.50231737 0.22271954 -0.116620414 0.36305374
000030 23 c3 d3 bd c1 f4 97 3e e1 65 d5 3e 0d af 03 3f
       -0.10339954 0.2967892 0.4167929 0.5143898
000040 c8 da c6 3e bf c5 52 bd a6 f8 9d 3e cc e6 d9 bd
       0.38838792 -0.051458117 0.30853766 -0.10639724
000050 e4 ad 04 3f 3c f6 ab 3d 17 29 60 bc ea b7 d8 3e
       0.51827836 0.08396575 -0.013681672 0.42327815
000060 6a 6a 00 3f 4a 7b d1 3d 36 1b 9e 3e 6b 4c 00 3e
       0.50162375 0.10228594 0.30880135 0.12529151
000070 b9 81 03 3f 91 d4 67 bd db b2 65 bd 00 20 d0 3e
       0.51369816 -0.056599203 -0.056078773 0.40649414
000080 b9 40 ce 3d 58 71 f8 3d 14 5e 11 3f 40 35 0f be
       0.100709386 0.121309936 0.56784177 -0.13985157
000090 b9 cf 16 be eb eb 9a 3e 43 48 fe 3e 07 25 28 3e
       -0.14727677 0.30258116 0.49664506 0.16420375
0000a0 80 d1 82 3e e2 1e e1 3e b4 da b6 3e 5f 5c 2c 3d
       0.2555046 0.43968874 0.35713732 0.04208028
0000b0 07 8e f6 bd a3 da 92 bd d2 40 80 3d dd 20 b6 bd
       -0.12038808 -0.07170608 0.062623635 -0.08892987
0000c0 ce 0e 0c be 65 f4 30 be
       -0.13677523 -0.17280729

fc3.weight f4 [2, 50]
000000 df ae ef 3e 0b 83 00 3f c3 18 fd 3d fd b9 19 bd
       0.46813104 0.50199956 0.123582385 -0.037530888
000010 4e 1b 0f 3f 9d 45 c2 3e e1 70 0c bf 5e b0 e0 3d
       0.5590104 0.37943736 -0.5485974 0.10971139
000020 e9 d7 1a 3f fb cc 12 3f 80 ca f8 3c 22 c4 d5 3e
       0.604857 0.57344025 0.030369997 0.417512
000030 84 86 32 bc df 8f ae 3e c1 a1 1c 3f 4f 42 0a 3f
       -0.010896329 0.3409414 0.61184317 0.5400743
000040 68 13 09 3f 96 f1 23 bf 8d bd 42 3e 02 30 a5 bd
       0.53545237 -0.64040506 0.1901762 -0.080657974
000050 9f ba e8 3e 46 d1 b4 be 5c 02 9b 3c 82 4d 12 3f
       0.4545488 -0.35315913 0.018922023 0.5714952
000060 99 8a 1d 3f e0 d5 e5 bd 17 8e ed 3e 8e ac 00 bd
       0.6153961 -0.11222434 0.46397468 -0.03141456
000070 ee d3 0b 3f 15 10 cc be 99 95 16 bf 0c 71 18 3f
       0.54620254 -0.3985602 -0.5882202 0.59547496
000080 8c 21 22 bf 38 7e 1d bc 2e b0 b9 3e 3a c7 4f be
       -0.6333244 -0.009612612 0.36267227 -0.20290843
000090 ab 6d ba 3d 2f e5 f1 3e be e6 f8 3e aa d9 f0 be
       0.09102949 0.47245166 0.48613542 -0.47041065
0000a0 75 60 b9 3e a6 a5 01 3f d4 98 fe 3e 1a 1d db be
       0.36206403 0.50643384 0.49725974 -0.4279564
0000b0 30 46 ca bd 3e 6b 8d bd db 9e c5 be 82 1b ef bd
       -0.098766685 -0.069052204 -0.3859776 -0.116751686
0000c0 2c 00 ad bd be a0 06 3e 9d 2f 9c 3e eb c5 ed 3e
       -0.084472984 0.13147256 0.30505076 0.46440062
0000d0 25 9d 83 bd 02 a4 fd 3d d2 15 4e 3e e0 1d a4 be
       -0.06426457 0.12384798 0.20125511 -0.32054043
0000e0 90 4e 08 be 2c cf 87 bc 6f a4 dd 3e 5b bf 11 3f
       -0.13311219 -0.01657828 0.43289515 0.5693261
0000f0 f3 eb b1 bd dc cc ab 3e 32 6d e7 be 23 67 11 3f
       -0.08687582 0.33554733 -0.45200497 0.56798
000100 86 40 fb 3e d4 11 f0 3e f3 23 22 3f 84 d5 b3 be
       0.49072665 0.46888602 0.63336104 -0.35123837
000110 6d c4 d0 be 84 ba 1f 3f dd f9 cd 3e 4d cb ee 3e
       -0.4077486 0.62393975 0.40229693 0.4663948
000120 21 73 03 3e b5 92 0a 3f c8 47 1f 3f 82 d7 8c 3c
       0.12836887 0.5413011 0.62218904 0.017192606
000130 86 c6 05 3f 4b de fc bd 52 aa 24 3f a2 9f 60 bf
       0.5225605 -0.123470865 0.6432239 -0.8774358
000140 de 1e c8 bd 6b dc 00 3f 9a c4 b3 be d6 ef 10 3e
       -0.097715124 0.5033633 -0.35110933 0.1415399
000150 85 b3 0c 3f 6b 5e 83 3e a8 1c f5 3c 70 9c c2 3e
       0.54961425 0.25657973 0.02992089 0.38009977
000160 66 13 22 3f 5b df 5b be 9e 0f dd 3e fb af 1a 3f
       0.6331085 -0.21471922 0.43175977 0.60424775
000170 34 07 30 3f 8c 84 a2 be 6e f8 ca 3d d5 22 0b 3e
       0.6876099 -0.3174175 0.099106655 0.13587506
000180 72 c4 57 be fa 2e d9 3d 3f c3 f1 bc 1b 67 2d 3d
       -0.21071032 0.10604663 -0.029512046 0.042334657

fc3.bias f4 [2]
000000 76 f1 af 3e 7b 55 3d 3e
       0.34363908 0.1848964
